…
                                            test_sample_num, model_input_size, device)
    edge_block_profiler.profile_all_blocks()

    optimal_runtime = OptimalRuntime(trained_blocks_dir_path, model_input_size,
                                     block_manager, model_manager, device)


2021-12-15 18:24:33,772 - log.py[40] - DEBUG: entry file content: ---------------------------------
2021-12-15 18:24:38,777 - auto_block_manager.py[234] - INFO: save pruned block block-0 (sparsity 0.0) in ../data/blocks\image_classification\resnet18_cifar100_0-125/compressed\block-0-0.pt
2021-12-15 18:24:38,777 - auto_block_manager.py[235] - DEBUG: LegoDNNBlock(
  (bn1): BatchNorm2d(64, eps=1e-05, momentum=0.1, affine=True, track_running_stats=True)
  (relu1): ReLU()
  (layer1): ModuleDict(
    (0): ModuleDict(
      (conv1): Conv2d(64, 64, kernel_size=(3, 3), stride=(1, 1), padding=(1, 1), bias=False)
      (bn1): BatchNorm2d(64, eps=1e-05, momentum=0.1, affine=True, track_running_stats=True)
      (relu1): ReLU()
      (conv2): Conv2d(64, 64, kernel_size=(3, 3), stride=(1, 1), padding=(1, 1), bias=False)
      (bn2): BatchNorm2d(64, eps=1e-05, momentum=0.1, affine=True, track_running_stats=True)
    )
  )
)
2021-12-15 18:24:38,979 - auto_block_manager.py[234] - INFO: save pruned block block-0 (sparsity 0.3) in ../data/blocks\image_classification\resnet18_cifar100_0-125/compressed\block-0-3.pt
2021-12-15 18:24:38,979 - auto_block_manager.py[235] - DEBUG: LegoDNNBlock(
  (bn1): BatchNorm2d(64, eps=1e-05, momentum=0.1, affine=True, track_running_stats=True)
  (relu1): ReLU()
  (layer1): ModuleDict(
    (0): ModuleDict(
      (conv1): Conv2d(64, 45, kernel_size=(3, 3), stride=(1, 1), padding=(1, 1), bias=False)
      (bn1): BatchNorm2d(45, eps=1e-05, momentum=0.1, affine=True, track_running_stats=True)
      (relu1): ReLU()
      (conv2): Conv2d(45, 64, kernel_size=(3, 3), stride=(1, 1), padding=(1, 1), bias=False)
      (bn2): BatchNorm2d(64, eps=1e-05, momentum=0.1, affine=True, track_running_stats=True)
    )
  )
)
2021-12-15 18:24:39,196 - auto_block_manager.py[234] - INFO: save pruned block block-0 (sparsity 0.6) in ../data/blocks\image_classification\resnet18_cifar100_0-125/compressed\block-0-6.pt
2021-12-15 18:24:39,196 - auto_block_manager.py[235] - DEBUG: LegoDNNBlock(
  (bn1): BatchNorm2d(64, eps=1e-05, momentum=0.1, affine=True, track_running_stats=True)
  (relu1): ReLU()
  (layer1): ModuleDict(
    (0): ModuleDict(
      (conv1): Conv2d(64, 26, kernel_size=(3, 3), stride=(1, 1), padding=(1, 1), bias=False)
      (bn1): BatchNorm2d(26, eps=1e-05, momentum=0.1, affine=True, track_running_stats=True)
      (relu1): ReLU()
      (conv2): Conv2d(26, 64, kernel_size=(3, 3), stride=(1, 1), padding=(1, 1), bias=False)
      (bn2): BatchNorm2d(64, eps=1e-05, momentum=0.1, affine=True, track_running_stats=True)
    )
  )
)
