…
    gen_series_legodnn_models(deadline=100, model_size_search_range=[model_size_min, model_size_max], target_model_num=100, optimal_runtime=optimal_runtime, descendant_models_save_path=descendant_models_dir_path, device=device)
2023-05-15 17:08:15,994 - log.py[40] - DEBUG: entry file content: ---------------------------------
2023-05-15 17:08:49,978 - block_extractor.py[28] - INFO: save pruned block block-0 (sparsity 0.0) in results/legodnn/semantic_segmentation/fcn_r18_d8_512_512_b16_voc2012_0-125/compressed/block-0-0.pt
2023-05-15 17:08:49,979 - block_extractor.py[29] - DEBUG: LegoDNNBlock(
  (backbone): ModuleDict(
    (stem): ModuleDict(
      (0): Conv2d(3, 32, kernel_size=(3, 3), stride=(2, 2), padding=(1, 1), bias=False)
      (1): BatchNorm2d(32, eps=1e-05, momentum=0.1, affine=True, track_running_stats=True)
      (2): ReLU()
      (3): Conv2d(32, 32, kernel_size=(3, 3), stride=(1, 1), padding=(1, 1), bias=False)
      (4): BatchNorm2d(32, eps=1e-05, momentum=0.1, affine=True, track_running_stats=True)
      (5): ReLU()
      (6): Conv2d(32, 64, kernel_size=(3, 3), stride=(1, 1), padding=(1, 1), bias=False)
    )
  )
)
2023-05-15 17:08:51,854 - block_extractor.py[28] - INFO: save pruned block block-0 (sparsity 0.4) in results/legodnn/semantic_segmentation/fcn_r18_d8_512_512_b16_voc2012_0-125/compressed/block-0-4.pt
2023-05-15 17:08:51,855 - block_extractor.py[29] - DEBUG: LegoDNNBlock(
  (backbone): ModuleDict(
    (stem): ModuleDict(
      (0): Conv2d(3, 20, kernel_size=(3, 3), stride=(2, 2), padding=(1, 1), bias=False)
      (1): BatchNorm2d(20, eps=1e-05, momentum=0.1, affine=True, track_running_stats=True)
      (2): ReLU()
      (3): Conv2d(20, 20, kernel_size=(3, 3), stride=(1, 1), padding=(1, 1), bias=False)
      (4): BatchNorm2d(20, eps=1e-05, momentum=0.1, affine=True, track_running_stats=True)
      (5): ReLU()
      (6): Conv2d(20, 64, kernel_size=(3, 3), stride=(1, 1), padding=(1, 1), bias=False)
    )
  )
)
2023-05-15 17:08:53,189 - block_extractor.py[28] - INFO: save pruned block block-0 (sparsity 0.8) in results/legodnn/semantic_segmentation/fcn_r18_d8_512_512_b16_voc2012_0-125/compressed/block-0-8.pt
2023-05-15 17:08:53,189 - block_extractor.py[29] - DEBUG: LegoDNNBlock(
  (backbone): ModuleDict(
    (stem): ModuleDict(
      (0): Conv2d(3, 7, kernel_size=(3, 3), stride=(2, 2), padding=(1, 1), bias=False)
      (1): BatchNorm2d(7, eps=1e-05, momentum=0.1, affine=True, track_running_stats=True)
      (2): ReLU()
      (3): Conv2d(7, 7, kernel_size=(3, 3), stride=(1, 1), padding=(1, 1), bias=False)
      (4): BatchNorm2d(7, eps=1e-05, momentum=0.1, affine=True, track_running_stats=True)
      (5): ReLU()
      (6): Conv2d(7, 64, kernel_size=(3, 3), stride=(1, 1), padding=(1, 1), bias=False)
    )
  )
)
2023-05-15 17:08:53,237 - block_extractor.py[28] - INFO: save pruned block block-1 (sparsity 0.0) in results/legodnn/semantic_segmentation/fcn_r18_d8_512_512_b16_voc2012_0-125/compressed/block-1-0.pt
2023-05-15 17:08:53,238 - block_extractor.py[29] - DEBUG: LegoDNNBlock(
  (backbone): ModuleDict(
    (stem): ModuleDict(
      (7): BatchNorm2d(64, eps=1e-05, momentum=0.1, affine=True, track_running_stats=True)
      (8): ReLU()
    )
    (maxpool): MaxPool2d(kernel_size=3, stride=2, padding=1, dilation=1, ceil_mode=False)
    (layer1): ModuleDict(
      (0): ModuleDict(
        (conv1): Conv2d(64, 64, kernel_size=(3, 3), stride=(1, 1), padding=(1, 1), bias=False)
        (bn1): BatchNorm2d(64, eps=1e-05, momentum=0.1, affine=True, track_running_stats=True)
        (relu): ReLU()
        (conv2): Conv2d(64, 64, kernel_size=(3, 3), stride=(1, 1), padding=(1, 1), bias=False)
        (bn2): BatchNorm2d(64, eps=1e-05, momentum=0.1, affine=True, track_running_stats=True)
      )
    )
  )
)
2023-05-15 17:08:55,671 - block_extractor.py[28] - INFO: save pruned block block-1 (sparsity 0.4) in results/legodnn/semantic_segmentation/fcn_r18_d8_512_512_b16_voc2012_0-125/compressed/block-1-4.pt
2023-05-15 17:08:55,671 - block_extractor.py[29] - DEBUG: LegoDNNBlock(
  (backbone): ModuleDict(
    (stem): ModuleDict(
      (7): BatchNorm2d(64, eps=1e-05, momentum=0.1, affine=True, track_running_stats=True)
      (8): ReLU()
    )
    (maxpool): MaxPool2d(kernel_size=3, stride=2, padding=1, dilation=1, ceil_mode=False)
    (layer1): ModuleDict(
      (0): ModuleDict(
        (conv1): Conv2d(64, 39, kernel_size=(3, 3), stride=(1, 1), padding=(1, 1), bias=False)
        (bn1): BatchNorm2d(39, eps=1e-05, momentum=0.1, affine=True, track_running_stats=True)
        (relu): ReLU()
        (conv2): Conv2d(39, 64, kernel_size=(3, 3), stride=(1, 1), padding=(1, 1), bias=False)
        (bn2): BatchNorm2d(64, eps=1e-05, momentum=0.1, affine=True, track_running_stats=True)
      )
    )
  )
)
2023-05-15 17:08:57,927 - block_extractor.py[28] - INFO: save pruned block block-1 (sparsity 0.8) in results/legodnn/semantic_segmentation/fcn_r18_d8_512_512_b16_voc2012_0-125/compressed/block-1-8.pt
2023-05-15 17:08:57,927 - block_extractor.py[29] - DEBUG: LegoDNNBlock(
  (backbone): ModuleDict(
    (stem): ModuleDict(
      (7): BatchNorm2d(64, eps=1e-05, momentum=0.1, affine=True, track_running_stats=True)
      (8): ReLU()
    )
    (maxpool): MaxPool2d(kernel_size=3, stride=2, padding=1, dilation=1, ceil_mode=False)
    (layer1): ModuleDict(
      (0): ModuleDict(
        (conv1): Conv2d(64, 13, kernel_size=(3, 3), stride=(1, 1), padding=(1, 1), bias=False)
        (bn1): BatchNorm2d(13, eps=1e-05, momentum=0.1, affine=True, track_running_stats=True)
        (relu): ReLU()
        (conv2): Conv2d(13, 64, kernel_size=(3, 3), stride=(1, 1), padding=(1, 1), bias=False)
        (bn2): BatchNorm2d(64, eps=1e-05, momentum=0.1, affine=True, track_running_stats=True)
      )
    )
  )
)
2023-05-15 17:08:57,971 - block_extractor.py[28] - INFO: save pruned block block-2 (sparsity 0.0) in results/legodnn/semantic_segmentation/fcn_r18_d8_512_512_b16_voc2012_0-125/compressed/block-2-0.pt
2023-05-15 17:08:57,971 - block_extractor.py[29] - DEBUG: LegoDNNBlock(
  (backbone): ModuleDict(
    (layer1): ModuleDict(
      (0): ModuleDict(
        (relu): ReLU()
      )
      (1): ModuleDict(
        (conv1): Conv2d(64, 64, kernel_size=(3, 3), stride=(1, 1), padding=(1, 1), bias=False)
        (bn1): BatchNorm2d(64, eps=1e-05, momentum=0.1, affine=True, track_running_stats=True)
        (relu): ReLU()
        (conv2): Conv2d(64, 64, kernel_size=(3, 3), stride=(1, 1), padding=(1, 1), bias=False)
        (bn2): BatchNorm2d(64, eps=1e-05, momentum=0.1, affine=True, track_running_stats=True)
      )
    )
  )
)
2023-05-15 17:08:59,178 - block_extractor.py[28] - INFO: save pruned block block-2 (sparsity 0.4) in results/legodnn/semantic_segmentation/fcn_r18_d8_512_512_b16_voc2012_0-125/compressed/block-2-4.pt
2023-05-15 17:08:59,178 - block_extractor.py[29] - DEBUG: LegoDNNBlock(
  (backbone): ModuleDict(
    (layer1): ModuleDict(
      (0): ModuleDict(
        (relu): ReLU()
      )
      (1): ModuleDict(
        (conv1): Conv2d(64, 39, kernel_size=(3, 3), stride=(1, 1), padding=(1, 1), bias=False)
        (bn1): BatchNorm2d(39, eps=1e-05, momentum=0.1, affine=True, track_running_stats=True)
        (relu): ReLU()
        (conv2): Conv2d(39, 64, kernel_size=(3, 3), stride=(1, 1), padding=(1, 1), bias=False)
        (bn2): BatchNorm2d(64, eps=1e-05, momentum=0.1, affine=True, track_running_stats=True)
      )
    )
  )
)
2023-05-15 17:09:00,325 - block_extractor.py[28] - INFO: save pruned block block-2 (sparsity 0.8) in results/legodnn/semantic_segmentation/fcn_r18_d8_512_512_b16_voc2012_0-125/compressed/block-2-8.pt
2023-05-15 17:09:00,325 - block_extractor.py[29] - DEBUG: LegoDNNBlock(
  (backbone): ModuleDict(
    (layer1): ModuleDict(
      (0): ModuleDict(
        (relu): ReLU()
      )
      (1): ModuleDict(
        (conv1): Conv2d(64, 13, kernel_size=(3, 3), stride=(1, 1), padding=(1, 1), bias=False)
        (bn1): BatchNorm2d(13, eps=1e-05, momentum=0.1, affine=True, track_running_stats=True)
        (relu): ReLU()
        (conv2): Conv2d(13, 64, kernel_size=(3, 3), stride=(1, 1), padding=(1, 1), bias=False)
        (bn2): BatchNorm2d(64, eps=1e-05, momentum=0.1, affine=True, track_running_stats=True)
      )
    )
  )
)
2023-05-15 17:09:00,468 - block_extractor.py[28] - INFO: save pruned block block-3 (sparsity 0.0) in results/legodnn/semantic_segmentation/fcn_r18_d8_512_512_b16_voc2012_0-125/compressed/block-3-0.pt
2023-05-15 17:09:00,468 - block_extractor.py[29] - DEBUG: LegoDNNBlock(
  (backbone): ModuleDict(
    (layer1): ModuleDict(
      (1): ModuleDict(
        (relu): ReLU()
      )
    )
    (layer2): ModuleDict(
      (0): ModuleDict(
        (conv1): Conv2d(64, 128, kernel_size=(3, 3), stride=(2, 2), padding=(1, 1), bias=False)
        (bn1): BatchNorm2d(128, eps=1e-05, momentum=0.1, affine=True, track_running_stats=True)
        (relu): ReLU()
        (conv2): Conv2d(128, 128, kernel_size=(3, 3), stride=(1, 1), padding=(1, 1), bias=False)
        (bn2): BatchNorm2d(128, eps=1e-05, momentum=0.1, affine=True, track_running_stats=True)
        (downsample): ModuleDict(
          (0): Conv2d(64, 128, kernel_size=(1, 1), stride=(2, 2), bias=False)
          (1): BatchNorm2d(128, eps=1e-05, momentum=0.1, affine=True, track_running_stats=True)
        )
      )
    )
  )
)
2023-05-15 17:09:01,694 - block_extractor.py[28] - INFO: save pruned block block-3 (sparsity 0.4) in results/legodnn/semantic_segmentation/fcn_r18_d8_512_512_b16_voc2012_0-125/compressed/block-3-4.pt
2023-05-15 17:09:01,694 - block_extractor.py[29] - DEBUG: LegoDNNBlock(
  (backbone): ModuleDict(
    (layer1): ModuleDict(
      (1): ModuleDict(
        (relu): ReLU()
      )
    )
    (layer2): ModuleDict(
      (0): ModuleDict(
        (conv1): Conv2d(64, 77, kernel_size=(3, 3), stride=(2, 2), padding=(1, 1), bias=False)
        (bn1): BatchNorm2d(77, eps=1e-05, momentum=0.1, affine=True, track_running_stats=True)
        (relu): ReLU()
        (conv2): Conv2d(77, 128, kernel_size=(3, 3), stride=(1, 1), padding=(1, 1), bias=False)
        (bn2): BatchNorm2d(128, eps=1e-05, momentum=0.1, affine=True, track_running_stats=True)
        (downsample): ModuleDict(
          (0): Conv2d(64, 128, kernel_size=(1, 1), stride=(2, 2), bias=False)
          (1): BatchNorm2d(128, eps=1e-05, momentum=0.1, affine=True, track_running_stats=True)
        )
      )
    )
  )
)
2023-05-15 17:09:02,981 - block_extractor.py[28] - INFO: save pruned block block-3 (sparsity 0.8) in results/legodnn/semantic_segmentation/fcn_r18_d8_512_512_b16_voc2012_0-125/compressed/block-3-8.pt
2023-05-15 17:09:02,981 - block_extractor.py[29] - DEBUG: LegoDNNBlock(
  (backbone): ModuleDict(
    (layer1): ModuleDict(
      (1): ModuleDict(
        (relu): ReLU()
      )
    )
    (layer2): ModuleDict(
      (0): ModuleDict(
        (conv1): Conv2d(64, 26, kernel_size=(3, 3), stride=(2, 2), padding=(1, 1), bias=False)
        (bn1): BatchNorm2d(26, eps=1e-05, momentum=0.1, affine=True, track_running_stats=True)
        (relu): ReLU()
        (conv2): Conv2d(26, 128, kernel_size=(3, 3), stride=(1, 1), padding=(1, 1), bias=False)
        (bn2): BatchNorm2d(128, eps=1e-05, momentum=0.1, affine=True, track_running_stats=True)
        (downsample): ModuleDict(
          (0): Conv2d(64, 128, kernel_size=(1, 1), stride=(2, 2), bias=False)
          (1): BatchNorm2d(128, eps=1e-05, momentum=0.1, affine=True, track_running_stats=True)
        )
      )
    )
  )
)
2023-05-15 17:09:03,050 - block_extractor.py[28] - INFO: save pruned block block-4 (sparsity 0.0) in results/legodnn/semantic_segmentation/fcn_r18_d8_512_512_b16_voc2012_0-125/compressed/block-4-0.pt
2023-05-15 17:09:03,050 - block_extractor.py[29] - DEBUG: LegoDNNBlock(
  (backbone): ModuleDict(
    (layer2): ModuleDict(
      (0): ModuleDict(
        (relu): ReLU()
      )
      (1): ModuleDict(
        (conv1): Conv2d(128, 128, kernel_size=(3, 3), stride=(1, 1), padding=(1, 1), bias=False)
        (bn1): BatchNorm2d(128, eps=1e-05, momentum=0.1, affine=True, track_running_stats=True)
        (relu): ReLU()
        (conv2): Conv2d(128, 128, kernel_size=(3, 3), stride=(1, 1), padding=(1, 1), bias=False)
        (bn2): BatchNorm2d(128, eps=1e-05, momentum=0.1, affine=True, track_running_stats=True)
      )
    )
  )
)
2023-05-15 17:09:04,110 - block_extractor.py[28] - INFO: save pruned block block-4 (sparsity 0.4) in results/legodnn/semantic_segmentation/fcn_r18_d8_512_512_b16_voc2012_0-125/compressed/block-4-4.pt
2023-05-15 17:09:04,110 - block_extractor.py[29] - DEBUG: LegoDNNBlock(
  (backbone): ModuleDict(
    (layer2): ModuleDict(
      (0): ModuleDict(
        (relu): ReLU()
      )
      (1): ModuleDict(
        (conv1): Conv2d(128, 77, kernel_size=(3, 3), stride=(1, 1), padding=(1, 1), bias=False)
        (bn1): BatchNorm2d(77, eps=1e-05, momentum=0.1, affine=True, track_running_stats=True)
        (relu): ReLU()
        (conv2): Conv2d(77, 128, kernel_size=(3, 3), stride=(1, 1), padding=(1, 1), bias=False)
        (bn2): BatchNorm2d(128, eps=1e-05, momentum=0.1, affine=True, track_running_stats=True)
      )
    )
  )
)
2023-05-15 17:09:05,052 - block_extractor.py[28] - INFO: save pruned block block-4 (sparsity 0.8) in results/legodnn/semantic_segmentation/fcn_r18_d8_512_512_b16_voc2012_0-125/compressed/block-4-8.pt
2023-05-15 17:09:05,052 - block_extractor.py[29] - DEBUG: LegoDNNBlock(
  (backbone): ModuleDict(
    (layer2): ModuleDict(
      (0): ModuleDict(
        (relu): ReLU()
      )
      (1): ModuleDict(
        (conv1): Conv2d(128, 26, kernel_size=(3, 3), stride=(1, 1), padding=(1, 1), bias=False)
        (bn1): BatchNorm2d(26, eps=1e-05, momentum=0.1, affine=True, track_running_stats=True)
        (relu): ReLU()
        (conv2): Conv2d(26, 128, kernel_size=(3, 3), stride=(1, 1), padding=(1, 1), bias=False)
        (bn2): BatchNorm2d(128, eps=1e-05, momentum=0.1, affine=True, track_running_stats=True)
      )
    )
  )
)
2023-05-15 17:09:05,158 - block_extractor.py[28] - INFO: save pruned block block-5 (sparsity 0.0) in results/legodnn/semantic_segmentation/fcn_r18_d8_512_512_b16_voc2012_0-125/compressed/block-5-0.pt
2023-05-15 17:09:05,159 - block_extractor.py[29] - DEBUG: LegoDNNBlock(
  (backbone): ModuleDict(
    (layer2): ModuleDict(
      (1): ModuleDict(
        (relu): ReLU()
      )
    )
    (layer3): ModuleDict(
      (0): ModuleDict(
        (conv1): Conv2d(128, 256, kernel_size=(3, 3), stride=(1, 1), padding=(1, 1), bias=False)
        (bn1): BatchNorm2d(256, eps=1e-05, momentum=0.1, affine=True, track_running_stats=True)
        (relu): ReLU()
        (conv2): Conv2d(256, 256, kernel_size=(3, 3), stride=(1, 1), padding=(1, 1), bias=False)
        (bn2): BatchNorm2d(256, eps=1e-05, momentum=0.1, affine=True, track_running_stats=True)
        (downsample): ModuleDict(
          (0): Conv2d(128, 256, kernel_size=(1, 1), stride=(1, 1), bias=False)
          (1): BatchNorm2d(256, eps=1e-05, momentum=0.1, affine=True, track_running_stats=True)
        )
      )
    )
  )
)
2023-05-15 17:09:06,471 - block_extractor.py[28] - INFO: save pruned block block-5 (sparsity 0.4) in results/legodnn/semantic_segmentation/fcn_r18_d8_512_512_b16_voc2012_0-125/compressed/block-5-4.pt
2023-05-15 17:09:06,471 - block_extractor.py[29] - DEBUG: LegoDNNBlock(
  (backbone): ModuleDict(
    (layer2): ModuleDict(
      (1): ModuleDict(
        (relu): ReLU()
      )
    )
    (layer3): ModuleDict(
      (0): ModuleDict(
        (conv1): Conv2d(128, 154, kernel_size=(3, 3), stride=(1, 1), padding=(1, 1), bias=False)
        (bn1): BatchNorm2d(154, eps=1e-05, momentum=0.1, affine=True, track_running_stats=True)
        (relu): ReLU()
        (conv2): Conv2d(154, 256, kernel_size=(3, 3), stride=(1, 1), padding=(1, 1), bias=False)
        (bn2): BatchNorm2d(256, eps=1e-05, momentum=0.1, affine=True, track_running_stats=True)
        (downsample): ModuleDict(
          (0): Conv2d(128, 256, kernel_size=(1, 1), stride=(1, 1), bias=False)
          (1): BatchNorm2d(256, eps=1e-05, momentum=0.1, affine=True, track_running_stats=True)
        )
      )
    )
  )
)
2023-05-15 17:09:07,848 - block_extractor.py[28] - INFO: save pruned block block-5 (sparsity 0.8) in results/legodnn/semantic_segmentation/fcn_r18_d8_512_512_b16_voc2012_0-125/compressed/block-5-8.pt
2023-05-15 17:09:07,848 - block_extractor.py[29] - DEBUG: LegoDNNBlock(
  (backbone): ModuleDict(
    (layer2): ModuleDict(
      (1): ModuleDict(
        (relu): ReLU()
      )
    )
    (layer3): ModuleDict(
      (0): ModuleDict(
        (conv1): Conv2d(128, 52, kernel_size=(3, 3), stride=(1, 1), padding=(1, 1), bias=False)
        (bn1): BatchNorm2d(52, eps=1e-05, momentum=0.1, affine=True, track_running_stats=True)
        (relu): ReLU()
        (conv2): Conv2d(52, 256, kernel_size=(3, 3), stride=(1, 1), padding=(1, 1), bias=False)
        (bn2): BatchNorm2d(256, eps=1e-05, momentum=0.1, affine=True, track_running_stats=True)
        (downsample): ModuleDict(
          (0): Conv2d(128, 256, kernel_size=(1, 1), stride=(1, 1), bias=False)
          (1): BatchNorm2d(256, eps=1e-05, momentum=0.1, affine=True, track_running_stats=True)
        )
      )
    )
  )
)
2023-05-15 17:09:08,017 - block_extractor.py[28] - INFO: save pruned block block-6 (sparsity 0.0) in results/legodnn/semantic_segmentation/fcn_r18_d8_512_512_b16_voc2012_0-125/compressed/block-6-0.pt
2023-05-15 17:09:08,017 - block_extractor.py[29] - DEBUG: LegoDNNBlock(
  (backbone): ModuleDict(
    (layer3): ModuleDict(
      (0): ModuleDict(
        (relu): ReLU()
      )
      (1): ModuleDict(
        (conv1): Conv2d(256, 256, kernel_size=(3, 3), stride=(1, 1), padding=(2, 2), dilation=(2, 2), bias=False)
        (bn1): BatchNorm2d(256, eps=1e-05, momentum=0.1, affine=True, track_running_stats=True)
        (relu): ReLU()
        (conv2): Conv2d(256, 256, kernel_size=(3, 3), stride=(1, 1), padding=(1, 1), bias=False)
        (bn2): BatchNorm2d(256, eps=1e-05, momentum=0.1, affine=True, track_running_stats=True)
      )
    )
  )
)
2023-05-15 17:09:09,639 - block_extractor.py[28] - INFO: save pruned block block-6 (sparsity 0.4) in results/legodnn/semantic_segmentation/fcn_r18_d8_512_512_b16_voc2012_0-125/compressed/block-6-4.pt
2023-05-15 17:09:09,640 - block_extractor.py[29] - DEBUG: LegoDNNBlock(
  (backbone): ModuleDict(
    (layer3): ModuleDict(
      (0): ModuleDict(
        (relu): ReLU()
      )
      (1): ModuleDict(
        (conv1): Conv2d(256, 154, kernel_size=(3, 3), stride=(1, 1), padding=(2, 2), dilation=(2, 2), bias=False)
        (bn1): BatchNorm2d(154, eps=1e-05, momentum=0.1, affine=True, track_running_stats=True)
        (relu): ReLU()
        (conv2): Conv2d(154, 256, kernel_size=(3, 3), stride=(1, 1), padding=(1, 1), bias=False)
        (bn2): BatchNorm2d(256, eps=1e-05, momentum=0.1, affine=True, track_running_stats=True)
      )
    )
  )
)
2023-05-15 17:09:11,030 - block_extractor.py[28] - INFO: save pruned block block-6 (sparsity 0.8) in results/legodnn/semantic_segmentation/fcn_r18_d8_512_512_b16_voc2012_0-125/compressed/block-6-8.pt
2023-05-15 17:09:11,030 - block_extractor.py[29] - DEBUG: LegoDNNBlock(
  (backbone): ModuleDict(
    (layer3): ModuleDict(
      (0): ModuleDict(
        (relu): ReLU()
      )
      (1): ModuleDict(
        (conv1): Conv2d(256, 52, kernel_size=(3, 3), stride=(1, 1), padding=(2, 2), dilation=(2, 2), bias=False)
        (bn1): BatchNorm2d(52, eps=1e-05, momentum=0.1, affine=True, track_running_stats=True)
        (relu): ReLU()
        (conv2): Conv2d(52, 256, kernel_size=(3, 3), stride=(1, 1), padding=(1, 1), bias=False)
        (bn2): BatchNorm2d(256, eps=1e-05, momentum=0.1, affine=True, track_running_stats=True)
      )
    )
  )
)
2023-05-15 17:09:11,108 - block_extractor.py[28] - INFO: save pruned block block-7 (sparsity 0.0) in results/legodnn/semantic_segmentation/fcn_r18_d8_512_512_b16_voc2012_0-125/compressed/block-7-0.pt
2023-05-15 17:09:11,109 - block_extractor.py[29] - DEBUG: LegoDNNBlock(
  (backbone): ModuleDict(
    (layer3): ModuleDict(
      (1): ModuleDict(
        (relu): ReLU()
      )
    )
    (layer4): ModuleDict(
      (0): ModuleDict(
        (conv1): Conv2d(256, 512, kernel_size=(3, 3), stride=(1, 1), padding=(2, 2), dilation=(2, 2), bias=False)
        (bn1): BatchNorm2d(512, eps=1e-05, momentum=0.1, affine=True, track_running_stats=True)
        (relu): ReLU()
        (conv2): Conv2d(512, 512, kernel_size=(3, 3), stride=(1, 1), padding=(1, 1), bias=False)
        (bn2): BatchNorm2d(512, eps=1e-05, momentum=0.1, affine=True, track_running_stats=True)
        (downsample): ModuleDict(
          (0): Conv2d(256, 512, kernel_size=(1, 1), stride=(1, 1), bias=False)
          (1): BatchNorm2d(512, eps=1e-05, momentum=0.1, affine=True, track_running_stats=True)
        )
      )
    )
  )
)
2023-05-15 17:09:13,117 - block_extractor.py[28] - INFO: save pruned block block-7 (sparsity 0.4) in results/legodnn/semantic_segmentation/fcn_r18_d8_512_512_b16_voc2012_0-125/compressed/block-7-4.pt
2023-05-15 17:09:13,117 - block_extractor.py[29] - DEBUG: LegoDNNBlock(
  (backbone): ModuleDict(
    (layer3): ModuleDict(
      (1): ModuleDict(
        (relu): ReLU()
      )
    )
    (layer4): ModuleDict(
      (0): ModuleDict(
        (conv1): Conv2d(256, 308, kernel_size=(3, 3), stride=(1, 1), padding=(2, 2), dilation=(2, 2), bias=False)
        (bn1): BatchNorm2d(308, eps=1e-05, momentum=0.1, affine=True, track_running_stats=True)
        (relu): ReLU()
        (conv2): Conv2d(308, 512, kernel_size=(3, 3), stride=(1, 1), padding=(1, 1), bias=False)
        (bn2): BatchNorm2d(512, eps=1e-05, momentum=0.1, affine=True, track_running_stats=True)
        (downsample): ModuleDict(
          (0): Conv2d(256, 512, kernel_size=(1, 1), stride=(1, 1), bias=False)
          (1): BatchNorm2d(512, eps=1e-05, momentum=0.1, affine=True, track_running_stats=True)
        )
      )
    )
  )
)
2023-05-15 17:09:15,511 - block_extractor.py[28] - INFO: save pruned block block-7 (sparsity 0.8) in results/legodnn/semantic_segmentation/fcn_r18_d8_512_512_b16_voc2012_0-125/compressed/block-7-8.pt
2023-05-15 17:09:15,512 - block_extractor.py[29] - DEBUG: LegoDNNBlock(
  (backbone): ModuleDict(
    (layer3): ModuleDict(
      (1): ModuleDict(
        (relu): ReLU()
      )
    )
    (layer4): ModuleDict(
      (0): ModuleDict(
        (conv1): Conv2d(256, 103, kernel_size=(3, 3), stride=(1, 1), padding=(2, 2), dilation=(2, 2), bias=False)
        (bn1): BatchNorm2d(103, eps=1e-05, momentum=0.1, affine=True, track_running_stats=True)
        (relu): ReLU()
        (conv2): Conv2d(103, 512, kernel_size=(3, 3), stride=(1, 1), padding=(1, 1), bias=False)
        (bn2): BatchNorm2d(512, eps=1e-05, momentum=0.1, affine=True, track_running_stats=True)
        (downsample): ModuleDict(
          (0): Conv2d(256, 512, kernel_size=(1, 1), stride=(1, 1), bias=False)
          (1): BatchNorm2d(512, eps=1e-05, momentum=0.1, affine=True, track_running_stats=True)
        )
      )
    )
  )
)
2023-05-15 17:09:15,671 - block_extractor.py[28] - INFO: save pruned block block-8 (sparsity 0.0) in results/legodnn/semantic_segmentation/fcn_r18_d8_512_512_b16_voc2012_0-125/compressed/block-8-0.pt
2023-05-15 17:09:15,671 - block_extractor.py[29] - DEBUG: LegoDNNBlock(
  (backbone): ModuleDict(
    (layer4): ModuleDict(
      (0): ModuleDict(
        (relu): ReLU()
      )
      (1): ModuleDict(
        (conv1): Conv2d(512, 512, kernel_size=(3, 3), stride=(1, 1), padding=(4, 4), dilation=(4, 4), bias=False)
        (bn1): BatchNorm2d(512, eps=1e-05, momentum=0.1, affine=True, track_running_stats=True)
        (relu): ReLU()
        (conv2): Conv2d(512, 512, kernel_size=(3, 3), stride=(1, 1), padding=(1, 1), bias=False)
        (bn2): BatchNorm2d(512, eps=1e-05, momentum=0.1, affine=True, track_running_stats=True)
      )
    )
  )
)
2023-05-15 17:09:18,525 - block_extractor.py[28] - INFO: save pruned block block-8 (sparsity 0.4) in results/legodnn/semantic_segmentation/fcn_r18_d8_512_512_b16_voc2012_0-125/compressed/block-8-4.pt
2023-05-15 17:09:18,526 - block_extractor.py[29] - DEBUG: LegoDNNBlock(
  (backbone): ModuleDict(
    (layer4): ModuleDict(
      (0): ModuleDict(
        (relu): ReLU()
      )
      (1): ModuleDict(
        (conv1): Conv2d(512, 308, kernel_size=(3, 3), stride=(1, 1), padding=(4, 4), dilation=(4, 4), bias=False)
        (bn1): BatchNorm2d(308, eps=1e-05, momentum=0.1, affine=True, track_running_stats=True)
        (relu): ReLU()
        (conv2): Conv2d(308, 512, kernel_size=(3, 3), stride=(1, 1), padding=(1, 1), bias=False)
        (bn2): BatchNorm2d(512, eps=1e-05, momentum=0.1, affine=True, track_running_stats=True)
      )
    )
  )
)
2023-05-15 17:09:21,296 - block_extractor.py[28] - INFO: save pruned block block-8 (sparsity 0.8) in results/legodnn/semantic_segmentation/fcn_r18_d8_512_512_b16_voc2012_0-125/compressed/block-8-8.pt
2023-05-15 17:09:21,297 - block_extractor.py[29] - DEBUG: LegoDNNBlock(
  (backbone): ModuleDict(
    (layer4): ModuleDict(
      (0): ModuleDict(
        (relu): ReLU()
      )
      (1): ModuleDict(
        (conv1): Conv2d(512, 103, kernel_size=(3, 3), stride=(1, 1), padding=(4, 4), dilation=(4, 4), bias=False)
        (bn1): BatchNorm2d(103, eps=1e-05, momentum=0.1, affine=True, track_running_stats=True)
        (relu): ReLU()
        (conv2): Conv2d(103, 512, kernel_size=(3, 3), stride=(1, 1), padding=(1, 1), bias=False)
        (bn2): BatchNorm2d(512, eps=1e-05, momentum=0.1, affine=True, track_running_stats=True)
      )
    )
  )
)
2023-05-15 17:09:21,394 - block_extractor.py[28] - INFO: save pruned block block-9 (sparsity 0.0) in results/legodnn/semantic_segmentation/fcn_r18_d8_512_512_b16_voc2012_0-125/compressed/block-9-0.pt
2023-05-15 17:09:21,394 - block_extractor.py[29] - DEBUG: LegoDNNBlock(
  (backbone): ModuleDict(
    (layer4): ModuleDict(
      (1): ModuleDict(
        (relu): ReLU()
      )
    )
  )
  (decode_head): ModuleDict(
    (convs): ModuleDict(
      (0): ModuleDict(
        (conv): Conv2d(512, 128, kernel_size=(3, 3), stride=(1, 1), padding=(1, 1), bias=False)
        (bn): BatchNorm2d(128, eps=1e-05, momentum=0.1, affine=True, track_running_stats=True)
        (activate): ReLU()
      )
      (1): ModuleDict(
        (conv): Conv2d(128, 128, kernel_size=(3, 3), stride=(1, 1), padding=(1, 1), bias=False)
        (bn): BatchNorm2d(128, eps=1e-05, momentum=0.1, affine=True, track_running_stats=True)
        (activate): ReLU()
      )
    )
    (conv_cat): ModuleDict(
      (conv): Conv2d(640, 128, kernel_size=(3, 3), stride=(1, 1), padding=(1, 1), bias=False)
    )
  )
)
2023-05-15 17:09:23,554 - block_extractor.py[28] - INFO: save pruned block block-9 (sparsity 0.4) in results/legodnn/semantic_segmentation/fcn_r18_d8_512_512_b16_voc2012_0-125/compressed/block-9-4.pt
2023-05-15 17:09:23,554 - block_extractor.py[29] - DEBUG: LegoDNNBlock(
  (backbone): ModuleDict(
    (layer4): ModuleDict(
      (1): ModuleDict(
        (relu): ReLU()
      )
    )
  )
  (decode_head): ModuleDict(
    (convs): ModuleDict(
      (0): ModuleDict(
        (conv): Conv2d(512, 77, kernel_size=(3, 3), stride=(1, 1), padding=(1, 1), bias=False)
        (bn): BatchNorm2d(77, eps=1e-05, momentum=0.1, affine=True, track_running_stats=True)
        (activate): ReLU()
      )
      (1): ModuleDict(
        (conv): Conv2d(77, 77, kernel_size=(3, 3), stride=(1, 1), padding=(1, 1), bias=False)
        (bn): BatchNorm2d(77, eps=1e-05, momentum=0.1, affine=True, track_running_stats=True)
        (activate): ReLU()
      )
    )
    (conv_cat): ModuleDict(
      (conv): Conv2d(589, 128, kernel_size=(3, 3), stride=(1, 1), padding=(1, 1), bias=False)
    )
  )
)
2023-05-15 17:09:25,560 - block_extractor.py[28] - INFO: save pruned block block-9 (sparsity 0.8) in results/legodnn/semantic_segmentation/fcn_r18_d8_512_512_b16_voc2012_0-125/compressed/block-9-8.pt
2023-05-15 17:09:25,561 - block_extractor.py[29] - DEBUG: LegoDNNBlock(
  (backbone): ModuleDict(
    (layer4): ModuleDict(
      (1): ModuleDict(
        (relu): ReLU()
      )
    )
  )
  (decode_head): ModuleDict(
    (convs): ModuleDict(
      (0): ModuleDict(
        (conv): Conv2d(512, 26, kernel_size=(3, 3), stride=(1, 1), padding=(1, 1), bias=False)
        (bn): BatchNorm2d(26, eps=1e-05, momentum=0.1, affine=True, track_running_stats=True)
        (activate): ReLU()
      )
      (1): ModuleDict(
        (conv): Conv2d(26, 26, kernel_size=(3, 3), stride=(1, 1), padding=(1, 1), bias=False)
        (bn): BatchNorm2d(26, eps=1e-05, momentum=0.1, affine=True, track_running_stats=True)
        (activate): ReLU()
      )
    )
    (conv_cat): ModuleDict(
      (conv): Conv2d(538, 128, kernel_size=(3, 3), stride=(1, 1), padding=(1, 1), bias=False)
    )
  )
)
2023-05-15 17:09:26,027 - block_trainer.py[183] - INFO: start block training...
2023-05-15 17:12:34,233 - block_trainer.py[357] - INFO: epoch 0 (188.206009s, 30 blocks still need training), blocks loss: 
+---------+------------+------------+------------+
|         |    0.0     |    0.4     |    0.8     |
+---------+------------+------------+------------+
…
